…
{\colortbl;\red255\green255\blue255;\red242\green242\blue242;}
\margl1440\margr1440\vieww27260\viewh14100\viewkind0
\pard\tx560\tx1120\tx1680\tx2240\tx2800\tx3360\tx3920\tx4480\tx5040\tx5600\tx6160\tx6720\pardirnatural\partightenfactor0

\f0\fs26 \cf2 \cb0 \CocoaLigature0 ____________________________________________________________________________________________________\
Layer (type)                     Output Shape          Param #     Connected to                     \
====================================================================================================\
batchnormalization_1 (BatchNorma (None, 100, 100, 3)   12          batchnormalization_input_1[0][0] \
____________________________________________________________________________________________________\
convolution2d_1 (Convolution2D)  (None, 98, 98, 32)    896         batchnormalization_1[0][0]       \
____________________________________________________________________________________________________\
maxpooling2d_1 (MaxPooling2D)    (None, 49, 49, 32)    0           convolution2d_1[0][0]            \
____________________________________________________________________________________________________\
convolution2d_2 (Convolution2D)  (None, 47, 47, 32)    9248        maxpooling2d_1[0][0]             \
____________________________________________________________________________________________________\
maxpooling2d_2 (MaxPooling2D)    (None, 23, 23, 32)    0           convolution2d_2[0][0]            \
____________________________________________________________________________________________________\
convolution2d_3 (Convolution2D)  (None, 21, 21, 32)    9248        maxpooling2d_2[0][0]             \
____________________________________________________________________________________________________\
maxpooling2d_3 (MaxPooling2D)    (None, 10, 10, 32)    0           convolution2d_3[0][0]            \
____________________________________________________________________________________________________\
convolution2d_4 (Convolution2D)  (None, 8, 8, 64)      18496       maxpooling2d_3[0][0]             \
____________________________________________________________________________________________________\
maxpooling2d_4 (MaxPooling2D)    (None, 4, 4, 64)      0           convolution2d_4[0][0]            \
____________________________________________________________________________________________________\
convolution2d_5 (Convolution2D)  (None, 2, 2, 128)     73856       maxpooling2d_4[0][0]             \
____________________________________________________________________________________________________\
maxpooling2d_5 (MaxPooling2D)    (None, 1, 1, 128)     0           convolution2d_5[0][0]            \
____________________________________________________________________________________________________\
flatten_1 (Flatten)              (None, 128)           0           maxpooling2d_5[0][0]             \
____________________________________________________________________________________________________\
dense_1 (Dense)                  (None, 1024)          132096      flatten_1[0][0]                  \
____________________________________________________________________________________________________\
dropout_1 (Dropout)              (None, 1024)          0           dense_1[0][0]                    \
____________________________________________________________________________________________________\
dense_2 (Dense)                  (None, 512)           524800      dropout_1[0][0]                  \
____________________________________________________________________________________________________\
dropout_2 (Dropout)              (None, 512)           0           dense_2[0][0]                    \
____________________________________________________________________________________________________\
dense_3 (Dense)                  (None, 1)             513         dropout_2[0][0]                  \
====================================================================================================\
Total params: 769,165\
Trainable params: 769,159\
Non-trainable params: 6\
____________________________________________________________________________________________________\
Epoch 1/3\
25600/25600 [==============================] - 270s - loss: 0.0811     \
…
